save/model.pth (torch, 16787 bytes, 4 tensors)

linear1.weight f4 [256, 11]
00000000: bc0f 553d f1c2 9bbe dec7 3bbe 478f 013f
00000010: 9115 c2be 8a01 04bf e202 51bd 6468 dc3e
00000020: 63a1 12bf a5ff 7ebf 8648 edbe 49e1 1e3e
00000030: c01e d0be 7104 abbd fd7f 9e3e c283 e8be
00000040: 074f 3cbe 6522 66be 269a b9be f5df b63e
00000050: c2e4 79be 2525 09be b5bd ce3d 115c c4be
00000060: e011 4f3c 136b 16bf 84bf 6ebe d8d8 08bf
00000070: 63e5 073f d82e 89be 4acf 2abf f0ed 18bf
00000080: 4374 e93e 25ac f0be 21c0 e6be 5a32 ba3e
00000090: 2062 01bd b10b 92be 6a19 cfbe b937 193d
000000a0: 38c4 d73d d95f dfbe 11cd babe 2fb7 ddbe
000000b0: 8346 80be 5eba ba3d 1723 c23c 7573 23bf
000000c0: fb92 b03c 69bd bf3e dde1 4fbe 5d3a 08bd
000000d0: bdf4 20bf 78ee d53e e905 ffbe 1844 8dbe
000000e0: c2a5 673d f2f3 1f3c eba8 5abe 5db6 3a3e
000000f0: b77c d2bd e205 36be c758 6cbe 462f f2bd
00000100: 58bb 7dbe 2919 4abe f27b 123f c156 47bf
00000110: 8063 b5bd d698 a03e 3886 893e e66e 26be
00000120: 93a1 8dbe afe4 20bf 2437 f8be 66b9 793e
00000130: cf4c 973e e379 6bbe 02b9 d63d a36a 833e
00000140: 71bf 8fbe 4667 d8bd 53b0 82be 3d76 40be
00000150: dd8a 83bc f23c 25be 5b81 80bd b9c7 10bd
00000160: 995c 563c 3662 f3bb fcd2 8cbe f9a1 eb38
00000170: c50e 28be 5e75 3cbe 1d15 4cbe 8332 47be
00000180: 8c31 61be 2aca e4bd 30ca 553e f744 47be
00000190: 7562 2f3f fb5e 5bbe 369f 773e a946 c3be
000001a0: cbe6 3abc 041c a13e b024 fcbd 41c6 febe
000001b0: 69cc d0bc 5cda d63e 5b66 4dbe 80ed f23d
000001c0: aac0 a1bd 604b 823c 3b19 10bf 7df7 ef3d
000001d0: efa3 1dbf 2f91 a33e 940c fabe bc8c 20bf
000001e0: cb65 e2be dec5 c83e 09b9 e93e 43a2 3a3e
000001f0: 678e 7dbd 1af0 ccbe 438a bebe ee1a 09be
00000200: 281d c23d 8938 013f 5ce1 503e 1a01 933e
00000210: 37a7 b53e 9ec2 2dbf 04bc 883e 3105 68bd
00000220: aace 1dbe 9a11 003c 5971 93bc 7128 5a3e
00000230: 7d36 48bc e846 a1bd 5ed3 1b3e 216a 58bd
00000240: d3e8 0abf e4e1 163f b906 a33e 232b 56bd
00000250: b931 263e 2ca6 833e 728a afbe f701 45bf
00000260: c8f6 30be f299 08bd cc11 eb3e c86f 06bf
00000270: 5976 213f 5f56 d53d 4691 193d 96ad 9fbc
00000280: 705f d0bb d37b 98be fde9 b1be 3926 adbe
00000290: 21ca 40be 07ff f3bd b81e 0dbf df74 973e
000002a0: d57d 19bf 0df7 0fbe 0f7a 98be 7c93 053f
000002b0: 279e 90bd 0539 3cbf 0871 d9be fd5f c53e
000002c0: 7639 33bd 9b9a d0be aad6 283f cbe9 25be
000002d0: 5714 60be 0fc0 19be bcc2 a9bd 5209 b63e
000002e0: 36d3 a83e c97d bf3e 2faa b43e 3794 273f
000002f0: d54c 983d 8f20 47bf b800 843e f969 71be
00000300: b3ea 773e 8e22 9dbe 058c 1bbe 01d0 9e3e
00000310: b00f 373b 5590 f53e 8b67 9fbe 20a5 78bd
00000320: a602 b3be 5adc b83e 1382 97be c2e4 bdbc
00000330: 9efe 593c 5f33 a7be 601a f6be 8582 813d
00000340: 28be aa3e 0073 88be 89c3 2c3d df87 083e
00000350: c11c a6bd 08d9 9cbd 2840 79be 1382 1bbe
00000360: c58e b23d a4e6 773d 7b69 26be f162 93ba
00000370: 82f9 d13e 2957 803e 33e6 d9be 9727 c1be
00000380: 0afe ed3e de5c 703e 3171 1b3d e983 7f3e
00000390: d446 9abe ffb2 c6be 3d50 8dbe 985b 163d
000003a0: ca97 2f3f 6aaf 15bf 49b3 d8bb ad73 aebe
000003b0: 378b 163e d831 ffbd 0624 dfbd 2b92 60be
000003c0: 2ce6 49be 7756 953e aa91 88bd eef7 633e
000003d0: 8734 13bf c15f dbbe 7514 063d c044 56bb
000003e0: 6a21 643e 5245 01bf 513a aabc 0e3a d43e
000003f0: 46f2 88be 143f debc 9e25 2cbe 0174 ce3c
0.05201696 -0.30422166 -0.18337962 0.5060925 -0.3790708 -0.5156485 -0.05102814 0.43048394
-0.57277507 -0.9960883 -0.46344393 0.15515627 -0.4064846 -0.083504565 0.30957022 -0.45413023
-0.18389522 -0.22474058 -0.36250418 0.3571774 -0.2440367 -0.13393076 0.100947775 -0.3835149
0.012638539 -0.5875713 -0.23315245 -0.5345588 0.5308439 -0.2679355 -0.6672255 -0.59738064
0.45596513 -0.47006336 -0.45068458 0.3636654 -0.03158772 -0.28524545 -0.40449077 0.037406657
0.10535473 -0.43627813 -0.36484578 -0.4330382 -0.25053796 0.09117578 0.023698373 -0.6384805
0.02155446 0.37449196 -0.20301004 -0.033258785 -0.6287344 0.417835 -0.49809197 -0.27591014
0.056554563 0.009762751 -0.213535 0.18233629 -0.10277694 -0.17775682 -0.23080741 -0.11825423
-0.24778497 -0.1973616 0.57220376 -0.7786675 -0.08856869 0.31366605 0.26860213 -0.16253242
-0.27662334 -0.62848943 -0.4847957 0.2438713 0.29550788 -0.22995715 0.10484506 0.25667295
-0.28075746 -0.10566573 -0.2552515 -0.18795104 -0.016057426 -0.1613653 -0.062746726 -0.03534672
0.0130836 -0.007427479 -0.27504718 0.00011235843 -0.16411884 -0.18404147 -0.19929929 -0.19452862
-0.21991557 -0.11171372 0.2087791 -0.19459902 0.6850961 -0.21422951 0.24181828 -0.38139847
-0.011407564 0.31466687 -0.12311685 -0.4976063 -0.025488095 0.4196347 -0.20058577 0.11861706
-0.07898076 0.015905082 -0.562885 0.117171265 -0.6157827 0.31946704 -0.4883772 -0.62714744
-0.44218287 0.3921346 0.45648983 0.1822596 -0.061903384 -0.40026933 -0.3721486 -0.13389179
0.09478217 0.5047689 0.20398468 0.28711778 0.35479137 -0.6787509 0.26705945 -0.056645576
-0.15410867 0.007816697 -0.017998384 0.2130449 -0.012220022 -0.078748524 0.15217349 -0.052835587
-0.5426151 0.5893843 0.31841066 -0.052287232 0.16229905 0.25712717 -0.34285313 -0.76956123
-0.1728164 -0.03334994 0.45912015 -0.52514315 0.6307121 0.104168646 0.03749206 -0.019491952
-0.0063590333 -0.2978197 -0.3474883 -0.33818224 -0.18827106 -0.11913877 -0.55125 0.29581353
-0.5995763 -0.14059086 -0.29780623 0.5217817 -0.07061415 -0.73524505 -0.42469049 0.38549796
-0.04375597 -0.40742955 0.6595255 -0.16202466 -0.21882759 -0.15014671 -0.08289096 0.35553986
0.3297364 0.37400654 0.3528609 0.6546053 0.074365295 -0.77784055 0.25781798 -0.23575582
0.24210624 -0.30690426 -0.15190132 0.3101807 0.0027932934 0.4796168 -0.31133685 -0.06070435
-0.34962958 0.36105615 -0.29591426 -0.02318037 0.013305334 -0.3265638 -0.48066998 0.06323723
0.33348203 -0.26650238 0.042178664 0.1333308 -0.08110953 -0.07658583 -0.2434088 -0.15186338
0.087186374 0.06052269 -0.16251175 -0.0011244697 0.41010672 0.25066498 -0.4255844 -0.37725517
0.4648288 0.23472926 0.037949745 0.24952663 -0.30132163 -0.38808438 -0.2760028 0.036708444
0.68590987 -0.58470786 -0.0066131693 -0.3407263 0.14701544 -0.12460679 -0.10895543 -0.21930759
-0.1971671 0.2916753 -0.06668408 0.22262546 -0.57502025 -0.42846492 0.032734353 -0.0032694787
0.22278371 -0.504964 -0.02077976 0.41450542 -0.2674734 -0.027129687 -0.16811225 0.0252018

linear1.bias f4 [256]
00000000: 2152 b8bc e144 06be 4248 07bd f7fa b8be
00000010: 0df3 523d f6b0 9dbe e078 fabd 8ada a0be
00000020: 4da4 9dbe c2b1 45be 79cf 1e3e 4ae2 a1be
00000030: e422 ddbe 8d6b d83e 4ffb 053c c88e f4bb
00000040: 6f4a 9dbe f7f5 aabe f413 dabe 3c34 95be
00000050: cb74 43be 8fda 08be c9aa a53c 4af9 adbe
00000060: 95d6 c7be 8ddb 20bf fe9d 01bf 2062 0d3f
00000070: cd63 cf3e 685b 74be 6eeb 7fbe e48f 813c
00000080: 478d 99bd 876d 493e ee3d 56be 24df 61bd
00000090: 3443 53bd 618e 573d 0efd a5be c614 afbd
000000a0: 4931 29be 3eba bfbe 6e9f 8f3e 05ad 17be
000000b0: 4b27 a9bd 6805 49be 6867 cdbe 3a91 f73d
000000c0: 25d0 eebd 39aa d8be fece a33e d23c 16bf
000000d0: 76e2 a4be 3441 01be 0008 ed3c 7c4e c83c
000000e0: bf44 2e3d 64f9 33be 9c82 cc3e a0e2 d43e
000000f0: 3a24 b7be 665d af3d f976 4c3d 6ab5 09be
00000100: 8f0b d2be fe06 57be 444e 90bc 32de 88be
00000110: a2ac 073b 3f99 60be aaee 5a3f c890 6dbc
00000120: 6e50 24bd 874e f5be cdba 2abe fab8 723e
00000130: 96c8 b1be 4335 42be a439 5dbe c7b7 44be
00000140: ed4b cdbe cc9f 17bd e131 15be 36a2 7abe
00000150: 2e83 babe bc4d c4be 0b69 e8be b591 18be
00000160: a637 e63e a7f2 47be e614 b43c 114b d63e
00000170: 8ea2 7dbe 7feb 5cbe 2cfb 6a3c 9522 423d
00000180: 40c5 cabd 605e e0be 7340 c9be 433e 54be
00000190: 424b 18be ae20 b4be 6821 7ebe df1d 81be
000001a0: c2aa 233d 4964 cfbc e3e1 47bd 958f c9be
000001b0: 0bac ebbe fb05 903e f7e9 45bd e1ec 69be
000001c0: e400 04be 781b 9cbe 86d8 87be 80c3 9d3e
000001d0: e578 0ebc 599a 96bd 4bdd 1ebf ef2a 05be
000001e0: 5c31 40be a414 0b3f 333f 90be 7cf0 36bd
000001f0: c97b a7be b8ec a13b 9903 7a3e 1448 a53e
00000200: 65d1 babd 94ed ddbc 4ecf 1dbe d4ab 2cbe
00000210: b01c 873d 9a65 b63d 46a7 d2be 6958 04bf
00000220: bbfd c7bd 07a8 a8be d6a6 23be 4673 eabe
00000230: 8d28 433d b3e8 4fbe 4b6e 2e3e 8994 353e
00000240: 66a1 8fbe 2087 323d 27cb 4bbe f86f 343d
00000250: fd9a 76be 1dd2 92be 260b 063e 4c91 87be
00000260: c441 b3be 98ff 13bf 503e dabe e6d8 003f
00000270: 4a41 8b3d f7d4 263f ba5c 5c3c 4717 5bbe
00000280: c897 e9bd 68f0 963d 4339 82be efe2 873d
00000290: fd33 8fbd 838e 6fbe ed8b 88be bd70 ca3e
000002a0: c4b8 7ebe 027e a3be 1c9e 84be 0385 16bf
000002b0: 2f32 05bf 04bb 28be 5b23 93be 8b68 943d
000002c0: 284d 07be 11b4 0d3f a4a9 98be b79d a4bd
000002d0: f92e 093f 7f08 68be d42c 17be 40a1 40be
000002e0: 3ed0 16bd c3ad a0bb e306 12be 19f2 2c3e
000002f0: c7fd 9a3f 798f c9be 2921 97be 8fcc 3b3e
00000300: aa6e 16bf 1460 87be 58e8 d8bd 3149 943e
00000310: 4a76 c43d 519a 783e 8851 d93e 9bc1 08bd
00000320: 0b1f 5bbe 444a f03d c858 97be de94 413c
00000330: d22b b5be 801d 04bf 9f50 c6be 9e00 98be
00000340: 0fc3 083d 6a15 953e 383e c5be 8f12 8dbe
00000350: c697 7fbe 803e 3c3e 0585 5d3f 56b0 e0be
00000360: 8427 6f3e 659f de3d b1cb febd 3d0b 173d
00000370: 297e f43d e7ac 05be e060 a43d f1ae efbe
00000380: d22a cdbe 4a83 863e 0051 bdbe ff01 46be
00000390: 8797 48be 9325 a6be 48b9 d0bd 6be8 853d
000003a0: 745f 8dbe 6277 a4be 6502 2fbe a4ed 923e
000003b0: fa0a 9dbd a71b 6abd 0043 b3bd ae8d c3be
000003c0: 885f 083e 9ebd 16bf 8fb1 5a3d 8af5 923b
000003d0: eb7a 84be f167 bd3e f6f7 f0bd 40ad a2bd
000003e0: f3d2 283f 21b9 a3be ccf4 0c3e 4bfe 64be
000003f0: fd34 80be 7bfe d4be fd1d bdbd 070e 97be
-0.0225001 -0.13112213 -0.033027895 -0.3612897 0.051501323 -0.30799073 -0.12230086 -0.31416732
-0.30789414 -0.1930609 0.15508832 -0.31617957 -0.43190682 0.42269555 0.008177592 -0.00746331
-0.3072085 -0.3339078 -0.42593348 -0.29141414 -0.19087522 -0.13364623 0.020223038 -0.33979255
-0.390309 -0.6283501 -0.506317 0.5522785 0.4050583 -0.23862994 -0.24992153 0.015815683
-0.0749765 0.19670688 -0.20922062 -0.055144444 -0.05157776 0.052626017 -0.32419628 -0.08548884
-0.16522707 -0.3744678 0.28051323 -0.14812095 -0.08259448 -0.19630969 -0.40117955 0.12088247
-0.11660794 -0.4231737 0.3199386 -0.58686554 -0.32204026 -0.1262253 0.028934479 0.024451487
0.04254603 -0.17575604 0.39943397 0.4157915 -0.35769826 0.08562736 0.04991815 -0.1344811
-0.41024444 -0.20998761 -0.017615445 -0.26732022 0.0020702262 -0.21933459 0.8552042 -0.014499851
-0.040115766 -0.47911474 -0.16672821 0.23703375 -0.34723347 -0.1896563 -0.2160402 -0.1921073
-0.4009699 -0.03701763 -0.14569809 -0.24475941 -0.36428207 -0.38340557 -0.4539264 -0.14899333
0.4496433 -0.19526158 0.021982621 0.41854146 -0.24769041 -0.2157421 0.014342111 0.04739626
-0.09900904 -0.43822002 -0.39306983 -0.20726876 -0.14872459 -0.35181183 -0.24817431 -0.25218102
0.03995777 -0.025316374 -0.048799407 -0.39367357 -0.46029696 0.28129563 -0.04831883 -0.22844268
-0.12890965 -0.30489707 -0.26532382 0.30813217 -0.008695816 -0.07353658 -0.62056416 -0.13004659
-0.18768829 0.5432837 -0.28173217 -0.044662938 -0.32711628 0.004941549 0.24415435 0.32281554
-0.0912197 -0.027090825 -0.15411112 -0.16862422 0.065972686 0.08906098 -0.41143245 -0.51697403
-0.09765192 -0.32940695 -0.15981612 -0.45791072 0.047646094 -0.20303611 0.17034261 0.17732443
-0.28052825 0.043585896 -0.19901715 0.044052094 -0.24082561 -0.2867593 0.1309019 -0.2647804
-0.35011113 -0.5781188 -0.42625666 0.5033096 0.06799562 0.6516871 0.013449842 -0.21395598
-0.11405903 0.073700726 -0.25434312 0.06635081 -0.06992338 -0.23394208 -0.26669255 0.39539137
-0.2487517 -0.31932074 -0.25901878 -0.5879671 -0.520297 -0.16477591 -0.28737912 0.072465025
-0.13213027 0.55352885 -0.29816926 -0.08037894 0.535873 -0.22659491 -0.14763194 -0.18811512
-0.03681969 -0.0049035265 -0.1426044 0.16889228 1.2108697 -0.39367273 -0.29517487 0.18339752
-0.5876261 -0.2644049 -0.10591191 0.2896209 0.09592874 0.24277617 0.42445016 -0.03338776
-0.2139856 0.11732915 -0.29559922 0.011815278 -0.35384995 -0.51607513 -0.38733384 -0.2968797
0.033389147 0.291179 -0.38524032 -0.27553222 -0.2496024 0.18383217 0.86531097 -0.43884534
0.23354918 0.10870246 -0.12441195 0.036875952 0.11938126 -0.13054238 0.0802629 -0.46813157
-0.40071732 0.2627204 -0.3697586 -0.19336699 -0.19589053 -0.32450542 -0.101915896 0.06538471
-0.27611887 -0.32122332 -0.17090757 0.2869693 -0.07668109 -0.057155278 -0.087530136 -0.3819403
0.13317692 -0.5888308 0.05339199 0.004484837 -0.2587503 0.36993363 -0.11766045 -0.07943201
0.6594688 -0.3197718 0.13765258 -0.2236263 -0.25040427 -0.41600403 -0.092342354 -0.2950289

linear2.weight f4 [3, 256]
00000000: 1e5b eb3e 5f34 7fbe f1dc f43e 59b2 31bc
00000010: 3953 893e 0271 e7bc 0bf2 a5bc 414c 873a
00000020: 5834 a63c 1b22 2f3e 9889 113e d330 59bd
00000030: a787 99bc 69f0 913e d0ec ee3d ddab cc3e
00000040: 5100 e2bd 4125 51be 78a3 17be 383b 71bc
00000050: 3725 81be 2b6a 2f3d 393f c13d 579e e6bb
00000060: 2891 1dbc 789d f5bb a19f febc 3c16 e03e
00000070: d8cc 983e f609 3abe c2c0 4f3c e235 393c
00000080: f881 a1be 088a 8b3e be34 263e 4505 a23d
00000090: e77a 23be 97a8 31bf 94f9 c5bc 4101 94be
000000a0: d901 09bf 37ad 78be ef27 d33e 573f 593d
000000b0: 21e0 d4be ca88 9cbc f43c 693c ec66 883e
000000c0: 4c7d 743e 2bc6 c23c 682f 083f 77ef c2bc
000000d0: 9c96 54bb c436 c03e 173e 15bc fd7e 2bbf
000000e0: fc97 ab3e 72a0 94be 18a9 923e 8309 1d3f
000000f0: f30d 83be 2e7b f83c 9f15 d93e 0869 b93d
00000100: d632 08bd e266 84bc 81d0 843c a057 26be
00000110: 08d3 eb3c 2714 2dbe 7c8a df3e 3511 cb3e
00000120: 3711 bfbb f88f afbd e1e4 44bf 2dee 713e
00000130: a296 243c 3d0e 6abd 0b95 d33a 4b71 95bc
00000140: b3e6 34be 91dd d53e 048f 613d 6066 fcbd
00000150: fd7a 433c c181 8dbd 4db9 92bd cbae 98be
00000160: 6f4c 643e 5247 cebd cec9 efbb 0bfe bb3e
00000170: 9af4 0fbe 8690 d3bd c40b bebc 21fb a33d
00000180: 7fc0 f43c b6f7 02be ccb9 09be d0e8 1dbd
00000190: 942a 963c 24b7 99bd 3ecb a53c 413c cf3d
000001a0: fa7b 0ebc 8f34 01be 9e8d 7c3e 7b1f efbc
000001b0: d7c4 cebb dcbc 0d3f e46d 183e 9836 0abe
000001c0: d7ec 0dbd 953d 5c3d 12d7 a13d 364d a73e
000001d0: c4ae 303d 99d4 1cbf c116 b2be e052 12bf
000001e0: 1b60 863c 829b 8d3e 128b d0be 004c ab3c
000001f0: 4397 5abc eca5 0b3f 7795 febc 0e1b ef3a
00000200: 4c17 11bf 3936 f03d 8540 253d 66b6 f6be
00000210: f271 fb3e 8aac 963d 8ccb 633d 2bd3 f83c
00000220: 51a6 e93d 070e 1fbc 06d0 1fbe 8e3c 2bbd
00000230: 5d4b 86be d7bd 693c 7da9 dd3e 3f86 8d3e
00000240: ea18 59bd 1b2f 073d 59b7 f9bd 24d6 02bf
00000250: 6e3b 583d 3408 c7bc 45dc e73e e6be 1b3e
00000260: 0412 033d d9bb 20be 8616 693e c853 d43d
00000270: a79e 72bd de0e 5c3e 7101 1b3e bc16 99be
00000280: 448b 80be 5574 ed3e facf 9fbc 5eb5 c63d
00000290: a91b 07bf 7f7d 9fbb adcd 78bd 104f 323e
000002a0: a9a5 23bd c2f6 13bd 76a8 003b f415 27bd
000002b0: 290c d1bd 3f55 303d b0c0 4cbe d502 df3d
000002c0: 026b 02bd 2a17 fe3d 3507 153e 7e65 c93b
000002d0: 1861 c83e 44e8 bebc c484 0fbf 2290 3bbd
000002e0: c32f 13bf b99f bcbd 8441 a6be a337 df3e
000002f0: 3089 e53e 8593 113d 4ed5 eebd a9c8 083d
00000300: 3fe1 cdbd 5dee a0bb 9043 febb eb4d 993e
00000310: afbd 033e 7e37 153e 1ef0 793e b453 063c
00000320: fcf3 cdbd 8953 4dbb 0d1a acbe 5a1d 39bc
00000330: 7177 e73b 65ef 9139 3888 653d c800 a53c
00000340: 97c3 923e 0f86 263e 8dd3 2cbd 5987 293b
00000350: c7da 30bc 9210 e73e 095c d43e 299d d4bc
00000360: 1d3f 12bf 067d 0ebd eb1a b8be 761c 9c3e
00000370: 0c28 10be 61c9 02bf da2b 97be e19b 31bd
00000380: a9e9 d23c 586d 083d 0874 cf3d 5f8a c5be
00000390: 444d d8bd 7047 67ba 7965 1abd 1de6 5abf
000003a0: a0f6 77bc 9d7f 1b3c a4e9 e1be 3a8e c43e
000003b0: 6ba2 073e adfb c4bc c1ee 37bd 682d 9f3d
000003c0: 2d9c 0abe 11d1 c73b 1f5d 593b 7f77 90bd
000003d0: 2a54 b6bb 5f60 cf3e 9049 1ebf fb4d 823d
000003e0: 4a3b 943e 8111 8fbe 327a 903b 2332 e5be
000003f0: 5ec1 4dbd 900d 3ebc d5ac 063c c49a 85bc
0.45967954 -0.24922322 0.47824815 -0.010845744 0.26821306 -0.028252129 -0.020257017 0.0010322408
0.020288631 0.17102854 0.14212644 -0.053025078 -0.018741442 0.2850373 0.11666262 0.3997487
-0.110352166 -0.20424367 -0.14808452 -0.0147235915 -0.25223705 0.04282586 0.09435887 -0.0070379185
-0.0096171275 -0.0074955784 -0.031081976 0.43766963 0.29843783 -0.18167862 0.012680234 0.011304351
-0.3154447 0.27253747 0.16231057 0.07911161 -0.15964852 -0.6939787 -0.02416686 -0.28907207
-0.53518444 -0.24284826 0.41241404 0.05303892 -0.41577247 -0.019108195 0.014235724 0.26641023
0.23875922 0.023776134 0.53197336 -0.023795826 -0.0032438403 0.37541783 -0.009109042 -0.66990644
0.33514392 -0.2902866 0.28644633 0.6134264 -0.2559658 0.030332174 0.42399308 0.09053236
-0.033251606 -0.01616234 0.016212704 -0.16244364 0.028787151 -0.16902219 0.43660343 0.39661565
-0.0058309096 -0.08572382 -0.7691174 0.23626013 0.010045679 -0.057142485 0.0016142441 -0.018242499
-0.1766613 0.41770604 0.05506803 -0.12324214 0.011931178 -0.06909514 -0.071642496 -0.29820856
0.22294782 -0.10072197 -0.007317758 0.36717257 -0.14058152 -0.103303 -0.02319897 0.080068834
0.029876946 -0.12789807 -0.13449782 -0.038552105 0.01833085 -0.075056344 0.020238515 0.101189144
-0.0086965505 -0.12617706 0.24663398 -0.029189816 -0.006310086 0.553663 0.1488567 -0.13497388
-0.034649696 0.053769667 0.079023495 0.32676095 0.04313542 -0.612619 -0.34782985 -0.5715771
0.016403249 0.27657706 -0.40731102 0.020910263 -0.013341728 0.5455005 -0.03107713 0.0018242316
-0.56676173 0.11729092 0.040344734 -0.48186034 0.4911037 0.07357128 0.05561404 0.03037413
0.114086755 -0.009707934 -0.15606698 -0.041805796 -0.26229373 0.014266453 0.43293372 0.27641484
-0.053002276 0.033003908 -0.12193174 -0.51108 0.05279105 -0.024295904 0.4528524 0.1520954
0.031999603 -0.15696658 0.22762498 0.103675425 -0.059233334 0.21490046 0.15137269 -0.29900157
-0.2510625 0.46377817 -0.01950835 0.09702562 -0.5277658 -0.004867255 -0.060743023 0.17412972
-0.039952908 -0.036124 0.001963166 -0.04079242 -0.102073975 0.043050047 -0.1999538 0.10889212
-0.03184033 0.12406762 0.1455353 0.006146132 0.39136577 -0.023304112 -0.5606196 -0.045791753
-0.57494754 -0.09210152 -0.3247186 0.43597135 0.44831228 0.035541076 -0.116617784 0.03339449
-0.10052728 -0.0049112276 -0.007759519 0.2994226 0.12865327 0.1457195 0.24408004 0.008198667
-0.10056302 -0.0031330308 -0.33613625 -0.011298502 0.007063799 0.00027834918 0.05603811 0.020141974
0.28664848 0.16262077 -0.042193938 0.0025868027 -0.010794348 0.4512983 0.41476467 -0.025953846
-0.57127553 -0.0347872 -0.35958037 0.30490464 -0.14077777 -0.5108853 -0.29525644 -0.04336155
0.025746183 0.033307403 0.10129553 -0.3858213 -0.10561612 -0.00088225957 -0.037694428 -0.85507375
-0.015134484 0.009490875 -0.44123566 0.3838976 0.13245551 -0.02404579 -0.044905428 0.077723324
-0.13536139 0.0060979207 0.0033167077 -0.07054042 -0.0055642324 0.40503213 -0.61831 0.0636253
0.28951484 -0.27943042 0.004409098 -0.44764814 -0.050233237 -0.011599913 0.008219917 -0.01630915

linear2.bias f4 [3]
00000000: 603f c53e 3b64 9d3d b38a 623c
0.38524914 0.07685133 0.013827014
